…
******************************
 	The input is image with shape (1015, 2560) at energy 18.0 kev with pixel size 2.5699999999999995e-06 m and distance 2.5699999999999995e-06 m min/max of image 0.22420818 1.3229495 
******************************
Model: "model_1"
_________________________________________________________________
Layer (type)                 Output Shape              Param #   
=================================================================
input_2 (InputLayer)         [(None, 1015, 2560, 1)]   0         
_________________________________________________________________
flatten (Flatten)            (None, 2598400)           0         
_________________________________________________________________
sequential_5 (Sequential)    (None, 128)               332595840 
_________________________________________________________________
sequential_6 (Sequential)    (None, 128)               17024     
_________________________________________________________________
sequential_7 (Sequential)    (None, 128)               17024     
_________________________________________________________________
sequential_8 (Sequential)    (None, 2598400)           345587200 
_________________________________________________________________
tf.reshape (TFOpLambda)      (None, 1015, 2560, 1)     0         
_________________________________________________________________
sequential_9 (Sequential)    (None, 1015, 2560, 32)    928       
_________________________________________________________________
sequential_10 (Sequential)   (None, 1015, 2560, 32)    25728     
_________________________________________________________________
sequential_11 (Sequential)   (None, 1015, 2560, 32)    9344      
_________________________________________________________________
sequential_12 (Sequential)   (None, 1015, 2560, 32)    25728     
_________________________________________________________________
sequential_13 (Sequential)   (None, 1015, 2560, 32)    25728     
_________________________________________________________________
sequential_14 (Sequential)   (None, 1015, 2560, 32)    9344      
_________________________________________________________________
sequential_15 (Sequential)   (None, 1015, 2560, 2)     584       
=================================================================
Total params: 678,314,472
Trainable params: 673,116,516
Non-trainable params: 5,197,956
_________________________________________________________________
finally the model is: 
 None
Model: "sequential_16"
_________________________________________________________________
Layer (type)                 Output Shape              Param #   
=================================================================
conv2d_7 (Conv2D)            (None, 508, 1280, 16)     416       
_________________________________________________________________
conv2d_8 (Conv2D)            (None, 508, 1280, 16)     6416      
_________________________________________________________________
leaky_re_lu_16 (LeakyReLU)   (None, 508, 1280, 16)     0         
_________________________________________________________________
dropout_4 (Dropout)          (None, 508, 1280, 16)     0         
_________________________________________________________________
conv2d_9 (Conv2D)            (None, 254, 640, 32)      12832     
_________________________________________________________________
leaky_re_lu_17 (LeakyReLU)   (None, 254, 640, 32)      0         
_________________________________________________________________
dropout_5 (Dropout)          (None, 254, 640, 32)      0         
_________________________________________________________________
conv2d_10 (Conv2D)           (None, 127, 320, 64)      18496     
_________________________________________________________________
leaky_re_lu_18 (LeakyReLU)   (None, 127, 320, 64)      0         
_________________________________________________________________
dropout_6 (Dropout)          (None, 127, 320, 64)      0         
_________________________________________________________________
conv2d_11 (Conv2D)           (None, 64, 160, 64)       36928     
_________________________________________________________________
leaky_re_lu_19 (LeakyReLU)   (None, 64, 160, 64)       0         
_________________________________________________________________
dropout_7 (Dropout)          (None, 64, 160, 64)       0         
_________________________________________________________________
flatten_1 (Flatten)          (None, 655360)            0         
_________________________________________________________________
dense_4 (Dense)              (None, 1)                 655361    
=================================================================
Total params: 730,449
Trainable params: 730,449
Non-trainable params: 0
_________________________________________________________________
finally the model is: 
 None
WARNING:tensorflow:AutoGraph could not transform <bound method GANphase.rec_step of <tensorflow.python.eager.function.TfMethodTarget object at 0x2ba61dd20070>> and will run it as-is.
…
